…
• In this layer therefore we will have 64x3x3 weights to optimize
![Page 36, Figure 1](../../public/subject-assets/snlp/slides/Chapter 3 KERAS/Chapter 3 KERAS_page_036.png)

### Page 37
Example
• Typically, as the width and height are
reduced (by pooling), it can be
computationally allowed to add more
output channels in each Conv2D layer.
• The input size includes a third dimension for
RGB
_________________________________________________________________
 Layer (type)                                           Output Shape              Param #
=================================================================
 conv2d (Conv2D)                                (None, 30, 30, 32)        896

 max_pooling2d (MaxPooling2D)     (None, 15, 15, 32)       0

 conv2d_1 (Conv2D)                            (None, 13, 13, 64)        18496

 max_pooling2d_1 (MaxPooling2D)    (None, 6, 6, 64)         0

 conv2d_2 (Conv2D)                                (None, 4, 4, 64)          36928

=================================================================
Total params: 56,320
![Page 37, Figure 1](../../public/subject-assets/snlp/slides/Chapter 3 KERAS/Chapter 3 KERAS_page_037_img_001.png)

### Page 38
Flattening
• Before moving from convolutional to dense, perform flattening
• model.add(tf.layers.Flatten())
![Page 38, Figure 1](../../public/subject-assets/snlp/slides/Chapter 3 KERAS/Chapter 3 KERAS_page_038.png)
…
